ir_version: 8
producer_name: "pytorch"
producer_version: "2.1.0"
graph {
  node {
    output: "/Constant_output_0"
    name: "/Constant"
    op_type: "Constant"
    attribute {
      name: "value"
      t {
        data_type: 7
        raw_data: "\000\000\000\000\000\000\000\000"
      }
      type: TENSOR
    }
  }
  node {
    input: "edge_index"
    input: "/Constant_output_0"
    output: "/Gather_output_0"
    name: "/Gather"
    op_type: "Gather"
    attribute {
      name: "axis"
      i: 0
      type: INT
    }
  }
  node {
    output: "/Constant_1_output_0"
    name: "/Constant_1"
    op_type: "Constant"
    attribute {
      name: "value"
      t {
        data_type: 7
        raw_data: "\001\000\000\000\000\000\000\000"
      }
      type: TENSOR
    }
  }
  node {
    input: "edge_index"
    input: "/Constant_1_output_0"
    output: "/Gather_1_output_0"
    name: "/Gather_1"
    op_type: "Gather"
    attribute {
      name: "axis"
      i: 0
      type: INT
    }
  }
  node {
    input: "/Gather_output_0"
    input: "/Gather_1_output_0"
    output: "/Equal_output_0"
    name: "/Equal"
    op_type: "Equal"
  }
  node {
    input: "/Equal_output_0"
    output: "/Not_output_0"
    name: "/Not"
    op_type: "Not"
  }
  node {
    input: "/Not_output_0"
    output: "/NonZero_output_0"
    name: "/NonZero"
    op_type: "NonZero"
  }
  node {
    input: "/NonZero_output_0"
    output: "/Transpose_output_0"
    name: "/Transpose"
    op_type: "Transpose"
    attribute {
      name: "perm"
      ints: 1
      ints: 0
      type: INTS
    }
  }
  node {
    output: "/Constant_2_output_0"
    name: "/Constant_2"
    op_type: "Constant"
    attribute {
      name: "value"
      t {
        dims: 1
        data_type: 7
        raw_data: "\001\000\000\000\000\000\000\000"
      }
      type: TENSOR
    }
  }
  node {
    input: "/Transpose_output_0"
    input: "/Constant_2_output_0"
    output: "/Squeeze_output_0"
    name: "/Squeeze"
    op_type: "Squeeze"
  }
  node {
    input: "edge_index"
    input: "/Squeeze_output_0"
    output: "/Gather_2_output_0"
    name: "/Gather_2"
    op_type: "Gather"
    attribute {
      name: "axis"
      i: 1
      type: INT
    }
  }
  node {
    output: "/Constant_3_output_0"
    name: "/Constant_3"
    op_type: "Constant"
    attribute {
      name: "value"
      t {
        dims: 1
        dims: 2708
        data_type: 7
        raw_data: "…"
      }
      type: TENSOR
    }
  }
  node {
    output: "onnx::Tile_18"
    name: "Constant_12"
    op_type: "Constant"
    attribute {
      name: "value"
      t {
        dims: 2
        data_type: 7
        raw_data: "\002\000\000\000\000\000\000\000\001\000\000\000\000\000\000\000"
      }
      type: TENSOR
    }
  }
  node {
    output: "/Constant_4_output_0"
    name: "/Constant_4"
    op_type: "Constant"
    attribute {
      name: "value"
      t {
        dims: 1
        data_type: 7
        raw_data: "\002\000\000\000\000\000\000\000"
      }
      type: TENSOR
    }
  }
  node {
    input: "/Constant_4_output_0"
    output: "/ConstantOfShape_output_0"
    name: "/ConstantOfShape"
    op_type: "ConstantOfShape"
    attribute {
      name: "value"
      t {
        dims: 1
        data_type: 7
        raw_data: "\001\000\000\000\000\000\000\000"
      }
      type: TENSOR
    }
  }
  node {
    input: "/Constant_3_output_0"
    input: "/ConstantOfShape_output_0"
    output: "/Expand_output_0"
    name: "/Expand"
    op_type: "Expand"
  }
  node {
    input: "/Expand_output_0"
    input: "onnx::Tile_18"
    output: "/Tile_output_0"
    name: "/Tile"
    op_type: "Tile"
  }
  node {
    input: "/Gather_2_output_0"
    input: "/Tile_output_0"
    output: "/Concat_output_0"
    name: "/Concat"
    op_type: "Concat"
    attribute {
      name: "axis"
      i: 1
      type: INT
    }
  }
  node {
    input: "/Concat_output_0"
    input: "/Constant_output_0"
    output: "/Gather_3_output_0"
    name: "/Gather_3"
    op_type: "Gather"
    attribute {
      name: "axis"
      i: 0
      type: INT
    }
  }
  node {
    input: "x"
    input: "/Gather_3_output_0"
    output: "/Gather_4_output_0"
    name: "/Gather_4"
    op_type: "Gather"
    attribute {
      name: "axis"
      i: -2
      type: INT
    }
  }
  node {
    input: "/Concat_output_0"
    input: "/Constant_1_output_0"
    output: "/Gather_5_output_0"
    name: "/Gather_5"
    op_type: "Gather"
    attribute {
      name: "axis"
      i: 0
      type: INT
    }
  }
  node {
    input: "x"
    input: "/Gather_5_output_0"
    output: "/Gather_6_output_0"
    name: "/Gather_6"
    op_type: "Gather"
    attribute {
      name: "axis"
      i: -2
      type: INT
    }
  }
  node {
    input: "/Gather_4_output_0"
    input: "/Gather_6_output_0"
    output: "/Sub_output_0"
    name: "/Sub"
    op_type: "Sub"
  }
  node {
    input: "/Sub_output_0"
    input: "onnx::MatMul_93"
    output: "/u/MatMul_output_0"
    name: "/u/MatMul"
    op_type: "MatMul"
  }
  node {
    input: "/u/MatMul_output_0"
    input: "c"
    output: "/Add_output_0"
    name: "/Add"
    op_type: "Add"
  }
  node {
    input: "/Add_output_0"
    output: "/Softmax_output_0"
    name: "/Softmax"
    op_type: "Softmax"
    attribute {
      name: "axis"
      i: 1
      type: INT
    }
  }
  node {
    input: "/Gather_4_output_0"
    input: "onnx::MatMul_94"
    output: "/lin/MatMul_output_0"
    name: "/lin/MatMul"
    op_type: "MatMul"
  }
  node {
    input: "/Gather_4_output_0"
    output: "/Shape_output_0"
    name: "/Shape"
    op_type: "Shape"
  }
  node {
    output: "/Constant_5_output_0"
    name: "/Constant_5"
    op_type: "Constant"
    attribute {
      name: "value"
      t {
        data_type: 7
        raw_data: "\000\000\000\000\000\000\000\000"
      }
      type: TENSOR
    }
  }
  node {
    input: "/Shape_output_0"
    input: "/Constant_5_output_0"
    output: "/Gather_7_output_0"
    name: "/Gather_7"
    op_type: "Gather"
    attribute {
      name: "axis"
      i: 0
      type: INT
    }
  }
  node {
    output: "onnx::Unsqueeze_40"
    name: "Constant_30"
    op_type: "Constant"
    attribute {
      name: "value"
      t {
        dims: 1
        data_type: 7
        raw_data: "\000\000\000\000\000\000\000\000"
      }
      type: TENSOR
    }
  }
  node {
    input: "/Gather_7_output_0"
    input: "onnx::Unsqueeze_40"
    output: "/Unsqueeze_output_0"
    name: "/Unsqueeze"
    op_type: "Unsqueeze"
  }
  node {
    output: "/Constant_6_output_0"
    name: "/Constant_6"
    op_type: "Constant"
    attribute {
      name: "value"
      t {
        dims: 1
        data_type: 7
        raw_data: "\001\000\000\000\000\000\000\000"
      }
      type: TENSOR
    }
  }
  node {
    output: "/Constant_7_output_0"
    name: "/Constant_7"
    op_type: "Constant"
    attribute {
      name: "value"
      t {
        dims: 1
        data_type: 7
        raw_data: "\377\377\377\377\377\377\377\377"
      }
      type: TENSOR
    }
  }
  node {
    input: "/Unsqueeze_output_0"
    input: "/Constant_6_output_0"
    input: "/Constant_7_output_0"
    output: "/Concat_1_output_0"
    name: "/Concat_1"
    op_type: "Concat"
    attribute {
      name: "axis"
      i: 0
      type: INT
    }
  }
  node {
    input: "/lin/MatMul_output_0"
    input: "/Concat_1_output_0"
    output: "/Reshape_output_0"
    name: "/Reshape"
    op_type: "Reshape"
    attribute {
      name: "allowzero"
      i: 0
      type: INT
    }
  }
  node {
    output: "/Constant_8_output_0"
    name: "/Constant_8"
    op_type: "Constant"
    attribute {
      name: "value"
      t {
        dims: 3
        data_type: 7
        raw_data: "\377\377\377\377\377\377\377\377\001\000\000\000\000\000\000\000\001\000\000\000\000\000\000\000"
      }
      type: TENSOR
    }
  }
  node {
    input: "/Softmax_output_0"
    input: "/Constant_8_output_0"
    output: "/Reshape_1_output_0"
    name: "/Reshape_1"
    op_type: "Reshape"
    attribute {
      name: "allowzero"
      i: 0
      type: INT
    }
  }
  node {
    input: "/Reshape_output_0"
    input: "/Reshape_1_output_0"
    output: "/Mul_output_0"
    name: "/Mul"
    op_type: "Mul"
  }
  node {
    output: "onnx::ReduceSum_51"
    name: "Constant_39"
    op_type: "Constant"
    attribute {
      name: "value"
      t {
        dims: 1
        data_type: 7
        raw_data: "\001\000\000\000\000\000\000\000"
      }
      type: TENSOR
    }
  }
  node {
    input: "/Mul_output_0"
    input: "onnx::ReduceSum_51"
    output: "/ReduceSum_output_0"
    name: "/ReduceSum"
    op_type: "ReduceSum"
    attribute {
      name: "keepdims"
      i: 0
      type: INT
    }
  }
  node {
    input: "/ReduceSum_output_0"
    output: "/aggr_module/Shape_output_0"
    name: "/aggr_module/Shape"
    op_type: "Shape"
  }
  node {
    output: "/aggr_module/Constant_output_0"
    name: "/aggr_module/Constant"
    op_type: "Constant"
    attribute {
      name: "value"
      t {
        data_type: 7
        raw_data: "\001\000\000\000\000\000\000\000"
      }
      type: TENSOR
    }
  }
  node {
    input: "/aggr_module/Shape_output_0"
    input: "/aggr_module/Constant_output_0"
    output: "/aggr_module/Gather_output_0"
    name: "/aggr_module/Gather"
    op_type: "Gather"
    attribute {
      name: "axis"
      i: 0
      type: INT
    }
  }
  node {
    input: "/ReduceSum_output_0"
    output: "/aggr_module/Shape_1_output_0"
    name: "/aggr_module/Shape_1"
    op_type: "Shape"
  }
  node {
    output: "/aggr_module/Constant_1_output_0"
    name: "/aggr_module/Constant_1"
    op_type: "Constant"
    attribute {
      name: "value"
      t {
        data_type: 7
        raw_data: "\000\000\000\000\000\000\000\000"
      }
      type: TENSOR
    }
  }
  node {
    input: "/aggr_module/Shape_1_output_0"
    input: "/aggr_module/Constant_1_output_0"
    output: "/aggr_module/Gather_1_output_0"
    name: "/aggr_module/Gather_1"
    op_type: "Gather"
    attribute {
      name: "axis"
      i: 0
      type: INT
    }
  }
  node {
    output: "onnx::Unsqueeze_59"
    name: "Constant_47"
    op_type: "Constant"
    attribute {
      name: "value"
      t {
        dims: 1
        data_type: 7
        raw_data: "\000\000\000\000\000\000\000\000"
      }
      type: TENSOR
    }
  }
  node {
    input: "/aggr_module/Gather_1_output_0"
    input: "onnx::Unsqueeze_59"
    output: "/aggr_module/Unsqueeze_output_0"
    name: "/aggr_module/Unsqueeze"
    op_type: "Unsqueeze"
  }
  node {
    input: "/aggr_module/Unsqueeze_output_0"
    output: "/aggr_module/Concat_output_0"
    name: "/aggr_module/Concat"
    op_type: "Concat"
    attribute {
      name: "axis"
      i: 0
      type: INT
    }
  }
  node {
    input: "/aggr_module/Concat_output_0"
    output: "/aggr_module/ConstantOfShape_output_0"
    name: "/aggr_module/ConstantOfShape"
    op_type: "ConstantOfShape"
    attribute {
      name: "value"
      t {
        dims: 1
        data_type: 1
        raw_data: "\000\000\200?"
      }
      type: TENSOR
    }
  }
  node {
    output: "/aggr_module/Constant_2_output_0"
    name: "/aggr_module/Constant_2"
    op_type: "Constant"
    attribute {
      name: "value"
      t {
        dims: 2708
        data_type: 1
        raw_data: "…"
      }
      type: TENSOR
    }
  }
  node {
    input: "/Gather_5_output_0"
    output: "/aggr_module/Shape_2_output_0"
    name: "/aggr_module/Shape_2"
    op_type: "Shape"
  }
  node {
    output: "/aggr_module/Constant_3_output_0"
    name: "/aggr_module/Constant_3"
    op_type: "Constant"
    attribute {
      name: "value"
      t {
        dims: 1
        data_type: 7
        raw_data: "\000\000\000\000\000\000\000\000"
      }
      type: TENSOR
    }
  }
  node {
    input: "/aggr_module/ConstantOfShape_output_0"
    input: "/aggr_module/Constant_3_output_0"
    input: "/aggr_module/Shape_2_output_0"
    output: "/aggr_module/Slice_output_0"
    name: "/aggr_module/Slice"
    op_type: "Slice"
  }
  node {
    input: "/aggr_module/Constant_2_output_0"
    input: "/Gather_5_output_0"
    input: "/aggr_module/Slice_output_0"
    output: "/aggr_module/ScatterElements_output_0"
    name: "/aggr_module/ScatterElements"
    op_type: "ScatterElements"
    attribute {
      name: "axis"
      i: 0
      type: INT
    }
    attribute {
      name: "reduction"
      s: "add"
      type: STRING
    }
  }
  node {
    output: "/aggr_module/Constant_4_output_0"
    name: "/aggr_module/Constant_4"
    op_type: "Constant"
    attribute {
      name: "value"
      t {
        data_type: 1
        raw_data: "\000\000\200?"
      }
      type: TENSOR
    }
  }
  node {
    input: "/aggr_module/ScatterElements_output_0"
    input: "/aggr_module/Constant_4_output_0"
    input: ""
    output: "/aggr_module/Clip_output_0"
    name: "/aggr_module/Clip"
    op_type: "Clip"
  }
  node {
    output: "/aggr_module/Constant_5_output_0"
    name: "/aggr_module/Constant_5"
    op_type: "Constant"
    attribute {
      name: "value"
      t {
        dims: 2
        data_type: 7
        raw_data: "\377\377\377\377\377\377\377\377\001\000\000\000\000\000\000\000"
      }
      type: TENSOR
    }
  }
  node {
    input: "/Gather_5_output_0"
    input: "/aggr_module/Constant_5_output_0"
    output: "/aggr_module/Reshape_output_0"
    name: "/aggr_module/Reshape"
    op_type: "Reshape"
    attribute {
      name: "allowzero"
      i: 0
      type: INT
    }
  }
  node {
    input: "/ReduceSum_output_0"
    output: "/aggr_module/Shape_3_output_0"
    name: "/aggr_module/Shape_3"
    op_type: "Shape"
  }
  node {
    input: "/aggr_module/Reshape_output_0"
    input: "/aggr_module/Shape_3_output_0"
    output: "/aggr_module/Expand_output_0"
    name: "/aggr_module/Expand"
    op_type: "Expand"
  }
  node {
    output: "/aggr_module/Constant_6_output_0"
    name: "/aggr_module/Constant_6"
    op_type: "Constant"
    attribute {
      name: "value"
      t {
        dims: 1
        data_type: 7
        raw_data: "\224\n\000\000\000\000\000\000"
      }
      type: TENSOR
    }
  }
  node {
    output: "onnx::Unsqueeze_78"
    name: "Constant_63"
    op_type: "Constant"
    attribute {
      name: "value"
      t {
        dims: 1
        data_type: 7
        raw_data: "\000\000\000\000\000\000\000\000"
      }
      type: TENSOR
    }
  }
  node {
    input: "/aggr_module/Gather_output_0"
    input: "onnx::Unsqueeze_78"
    output: "/aggr_module/Unsqueeze_1_output_0"
    name: "/aggr_module/Unsqueeze_1"
    op_type: "Unsqueeze"
  }
  node {
    input: "/aggr_module/Constant_6_output_0"
    input: "/aggr_module/Unsqueeze_1_output_0"
    output: "/aggr_module/Concat_1_output_0"
    name: "/aggr_module/Concat_1"
    op_type: "Concat"
    attribute {
      name: "axis"
      i: 0
      type: INT
    }
  }
  node {
    input: "/aggr_module/Concat_1_output_0"
    output: "/aggr_module/ConstantOfShape_1_output_0"
    name: "/aggr_module/ConstantOfShape_1"
    op_type: "ConstantOfShape"
    attribute {
      name: "value"
      t {
        dims: 1
        data_type: 1
        raw_data: "\000\000\000\000"
      }
      type: TENSOR
    }
  }
  node {
    input: "/aggr_module/Expand_output_0"
    output: "/aggr_module/Shape_4_output_0"
    name: "/aggr_module/Shape_4"
    op_type: "Shape"
  }
  node {
    output: "/aggr_module/Constant_7_output_0"
    name: "/aggr_module/Constant_7"
    op_type: "Constant"
    attribute {
      name: "value"
      t {
        dims: 2
        data_type: 7
        raw_data: "\000\000\000\000\000\000\000\000\000\000\000\000\000\000\000\000"
      }
      type: TENSOR
    }
  }
  node {
    input: "/ReduceSum_output_0"
    input: "/aggr_module/Constant_7_output_0"
    input: "/aggr_module/Shape_4_output_0"
    output: "/aggr_module/Slice_1_output_0"
    name: "/aggr_module/Slice_1"
    op_type: "Slice"
  }
  node {
    input: "/aggr_module/ConstantOfShape_1_output_0"
    input: "/aggr_module/Expand_output_0"
    input: "/aggr_module/Slice_1_output_0"
    output: "/aggr_module/ScatterElements_1_output_0"
    name: "/aggr_module/ScatterElements_1"
    op_type: "ScatterElements"
    attribute {
      name: "axis"
      i: 0
      type: INT
    }
    attribute {
      name: "reduction"
      s: "add"
      type: STRING
    }
  }
  node {
    output: "/aggr_module/Constant_8_output_0"
    name: "/aggr_module/Constant_8"
    op_type: "Constant"
    attribute {
      name: "value"
      t {
        dims: 2
        data_type: 7
        raw_data: "\377\377\377\377\377\377\377\377\001\000\000\000\000\000\000\000"
      }
      type: TENSOR
    }
  }
  node {
    input: "/aggr_module/Clip_output_0"
    input: "/aggr_module/Constant_8_output_0"
    output: "/aggr_module/Reshape_1_output_0"
    name: "/aggr_module/Reshape_1"
    op_type: "Reshape"
    attribute {
      name: "allowzero"
      i: 0
      type: INT
    }
  }
  node {
    input: "/aggr_module/ScatterElements_1_output_0"
    output: "/aggr_module/Shape_5_output_0"
    name: "/aggr_module/Shape_5"
    op_type: "Shape"
  }
  node {
    input: "/aggr_module/Reshape_1_output_0"
    input: "/aggr_module/Shape_5_output_0"
    output: "/aggr_module/Expand_1_output_0"
    name: "/aggr_module/Expand_1"
    op_type: "Expand"
  }
  node {
    input: "/aggr_module/ScatterElements_1_output_0"
    input: "/aggr_module/Expand_1_output_0"
    output: "/aggr_module/Div_output_0"
    name: "/aggr_module/Div"
    op_type: "Div"
  }
  node {
    input: "/aggr_module/Div_output_0"
    input: "bias"
    output: "91"
    name: "/Add_1"
    op_type: "Add"
  }
  name: "main_graph"
  initializer {
    dims: 1
    data_type: 1
    name: "c"
    raw_data: "\\!)>"
  }
  initializer {
    dims: 7
    data_type: 1
    name: "bias"
    raw_data: "\265E\213=11X=\005\326e\275K\206==-\002\023=\362U\227=\371\212\303="
  }
  initializer {
    dims: 1433
    dims: 1
    data_type: 1
    name: "onnx::MatMul_93"
    raw_data: "…"
  }
  initializer {
    dims: 1433
    dims: 7
    data_type: 1
    name: "onnx::MatMul_94"
    raw_data: "…"
  }
  input {
    name: "x"
    type {
      tensor_type {
        elem_type: 1
        shape {
          dim {
            dim_value: 2708
          }
          dim {
            dim_value: 1433
          }
        }
      }
    }
  }
  input {
    name: "edge_index"
    type {
      tensor_type {
        elem_type: 7
        shape {
          dim {
            dim_value: 2
          }
          dim {
            dim_value: 2708
          }
        }
      }
    }
  }
  output {
    name: "91"
    type {
      tensor_type {
        elem_type: 1
        shape {
          dim {
            dim_param: "Add91_dim_0"
          }
          dim {
            dim_param: "Add91_dim_1"
          }
        }
      }
    }
  }
}
opset_import {
  version: 16
}
